models/new_wmg_Collins2018.pth (torch_old, 452850 bytes, 77 tensors)

core_embedding_layer.layer.weight f4 [72, 3]
00000000: 9d40 943e 8290 83be 071a ddbd 925a 8b3e
00000010: d033 0abf 9e61 ae3e e329 fbbd 97af 953e
00000020: b429 be3d c94b 74bd 4eb6 233e 9cae c43c
00000030: 97db 573e 8df8 67be c1ab 1dbd dee5 7cbd
00000040: 5eef a33d 5460 1c3b 1660 023f 5ab4 3b3e
00000050: 3203 68be 331c b6be 73c6 d3bd d490 83be
00000060: 8d34 42be 7f74 c33c eee1 b23e 3396 a13e
00000070: 216b 10bf 047a b53e 309f 1d3e ccec 0a3f
00000080: 4a51 c43e 395f 07bf 57c8 0dbf 22f6 94be
00000090: 5817 003f e1da cabd 6be8 833e 8025 89be
000000a0: dc72 0f3f 7bef 7bbe c63d db3e 38c4 a43b
000000b0: e541 9ebe 8a58 963e fc16 9ebe d628 313e
000000c0: 3bf1 22be 2dad 80bd 2cd4 0ebf b719 89be
000000d0: 0c1f a23e 289a 16be 6e6a 133f b7b1 eb3e
000000e0: b7b1 efbc 3d7f c1be 5f94 b63e 7523 323e
000000f0: 65c1 c2be 29a2 bd3e c036 b73e 76c4 043f
00000100: 1b49 a3be d2ff cebd 4260 bdbb afa3 a93d
00000110: 1381 e1be 07a2 d3be 84f7 9c3e 7f8a 1abe
00000120: b981 933e 9a90 1e3d 2730 403e fc17 083e
00000130: e657 5b3e a6e1 903e 5d7b 0abf 9186 913e
00000140: a3c3 cebe 402b debe 76c8 f43c 04be e7bd
00000150: 67c0 a83e ef57 aebe de1c 04bf d160 d33e
00000160: 01f1 a4bd 49ba ab3e 9c26 433e ca5c dbbe
00000170: 5da2 e63d 9ca3 053e b087 c8be aa9b 8cbe
00000180: f760 463e c64a d43d 8a86 7cbe 4e96 30be
00000190: cac6 073f d5b4 cebd 1796 a53e d059 7a3e
000001a0: 49c4 c1be dc56 fabe 709b 0c3f acbe b63c
000001b0: 3112 cd3e 76df fa3d c4d9 3d3e 0569 df3e
000001c0: cef8 0b3f eb07 c6be f390 9f3d 9e90 df3e
000001d0: 87be d93e 13a8 b43e f24d d7be c165 d6be
000001e0: 2c0c b3be f4a9 993d e3d6 153f a9c0 bcbe
000001f0: 72a7 9a3e aa70 a6be db05 0cbf 8b4d ffbd
00000200: 0b2f ae3e 8216 083f 2fb4 b8be c60c 043e
00000210: 3739 003f f5b4 c13e c062 b83e 87e7 cf3e
00000220: 1043 ba3e d6f6 1d3e 48be cdbe ccfe fabe
00000230: 627e 86be 349a 96bd 6a3b b3be 1ca0 613e
00000240: bd51 383e ed66 00be c298 613e 2136 483e
00000250: ff05 b83e d128 ca3e 537d 40be 75e9 103f
00000260: ddb3 94bd 1a6c ddbc c58b 0cbf e54b bcbe
00000270: 5c04 abbe 39a9 77be 9555 d83e 981b 40be
00000280: 168d dabe 5cc7 643e 897b 383e d504 be3e
00000290: 39a7 98be 8da3 f93d 9e86 57be 7dd4 0cbe
000002a0: b3a4 eabe a1a6 85be 7dc0 33be d1e1 803e
000002b0: ae1d dd3d 433e 0d3e b0fe 123f bb20 103f
000002c0: dc4e ca3e 5ffe 793c a563 cabe 9483 ef3e
000002d0: 41ff 17be c683 4abd c154 02bf 0d3f dabd
000002e0: 69f4 bbbe 3eb0 063f d519 fdbe 64d6 e3be
000002f0: 2e2a 32bc c587 a0be bd8a 543e d6ff 66be
00000300: 2ae1 8abe 0c93 0b3d 9739 db3e f863 cabe
00000310: 2e95 8c3e 1c9e bd3e e0db 0d3f 3ee6 d0be
00000320: a1bc 103e 2838 dbbe 1dd2 f93e 5d15 63be
00000330: d4dd ae3e 9586 563c cd33 24bd 4de7 87bc
00000340: 1029 c43d 4a05 8e3e 57e7 bd3d 90bf 383e
00000350: 8fe6 05bf 16ef d93e a67c 023f 48c1 f83e
0.28955546 -0.25696188 -0.1079598 0.27217537 -0.5398531 0.3405885 -0.12263849 0.29235527
0.09285298 -0.059642587 0.15987512 0.024009041 0.2107986 -0.22653408 -0.038493875 -0.061742656
0.0800464 0.0023861127 0.50927866 0.18330517 -0.22657469 -0.3556839 -0.103405856 -0.25696433
-0.18965359 0.02385926 0.34937996 0.31559905 -0.56413466 0.35444653 0.15392756 0.54267573
0.3834327 -0.52879673 -0.5538382 -0.29094034 0.5003562 -0.09905029 0.25763258 -0.26786423
0.56034636 -0.24603073 0.42820567 0.005028274 -0.3090965 0.29364425 -0.3087691 0.17300734
-0.15912335 -0.06283031 -0.557925 -0.2677743 0.31664312 -0.14707243 0.57584274 0.46034023
-0.029259546 -0.37792388 0.35660073 0.17396338 -0.38038173 0.3703778 0.35783958 0.51862276
-0.31891713 -0.101073876 -0.005779297 0.08283173 -0.44043788 -0.41334555 0.3065759 -0.15091895
0.28809908 0.03871212 0.18768369 0.132904 0.2142025 0.28297156 -0.5409449 0.2842298
-0.40383634 -0.43392372 0.029880743 -0.113155395 0.3295929 -0.34051463 -0.5160655 0.41284803
-0.0805378 0.33540562 0.19057697 -0.4284423 0.11261437 0.13050693 -0.3916602 -0.27462512
0.19372927 0.103658244 -0.24660698 -0.17244837 0.53037703 -0.10093085 0.32341072 0.24448323
-0.37845066 -0.48894393 0.5492468 0.022307716 0.4005294 0.12249653 0.18540102 0.4363481
0.5467652 -0.38677916 0.07791319 0.43665022 0.42528173 0.3528448 -0.42051655 -0.41874507
-0.34970224 0.07503119 0.58531016 -0.36865738 0.30205876 -0.3250783 -0.54696435 -0.12465962
0.34020266 0.53159344 -0.3607497 0.12895498 0.500873 0.37833372 0.3601284 0.4060633
0.3637929 0.15426192 -0.40184236 -0.4902252 -0.26268297 -0.07353631 -0.35006267 0.22033733
0.1799993 -0.12539263 0.22030929 0.19551899 0.35942075 0.39484265 -0.18797807 0.5660623
-0.07260869 -0.027029086 -0.5490077 -0.36776653 -0.33401763 -0.24185647 0.42252794 -0.18760526
-0.42685765 0.22341675 0.18015875 0.37113062 -0.2981508 0.12189398 -0.21047446 -0.13752933
-0.4582878 -0.2610369 -0.17553897 0.25172284 0.107966766 0.13793282 0.5741987 0.5629994
0.3951329 0.015258401 -0.39529148 0.46780074 -0.14843465 -0.049442075 -0.50910574 -0.10656557
-0.36709908 0.52612674 -0.4943377 -0.44499505 -0.010874314 -0.31353584 0.2075605 -0.22558531
-0.27124912 0.03407578 0.42817375 -0.39529395 0.27457565 0.3703469 0.5541363 -0.4080066
0.14134456 -0.4281628 0.48793116 -0.22176118 0.34153616 0.01309361 -0.040088464 -0.016589785
0.095781446 0.2773841 0.0927264 0.18041825 -0.5230493 0.4256522 0.5097145 0.48584962

core_embedding_layer.layer.bias f4 [72]
00000000: 0637 05ba aabf 0a3a 0d60 b6ba 45d4 a4ba
00000010: db3b 18bb 7003 e9bb 59a4 ca3b cc60 0ebb
00000020: 0630 cdb9 d669 cdbb c1cc 8b3b 8bd2 1dbb
00000030: 438c 7fbb 1f65 30bb 8bad 90bb 88e1 92b9
00000040: 5ef7 b83b 4627 fa3b 67e3 cd3b cbcf a43b
00000050: b7ac f9bb d54c db3b 71aa a73b 28f0 9bbb
00000060: 2540 a73b a098 f13b 9044 c9bb b51f a73a
00000070: 2859 afbb e377 f4ba 255c d23b 4bad 05bc
00000080: 1df2 8e3b 5dc4 2ebb fb14 b23b 6b2b ed3a
00000090: 2fb4 d63b 3344 043c 830f 243a 35da 08bb
000000a0: f7d0 423b 0270 b23a 84d9 04bc 9024 12bb
000000b0: 2549 c7b9 8a0a aeba 47e8 d5bb 2e27 25bc
000000c0: 51be 9b3b ab99 bb39 e889 843b da0d 97bb
000000d0: a1db 36bb ec89 773b ae02 d1bb ec1b fbb9
000000e0: e084 673b 6110 7e3b 26ec c23b f2b1 10bb
000000f0: eb15 8ebb 1a1c dd3b d221 323b 4c69 ef3a
00000100: 0ac1 0cba b83e e1b9 d3e6 5e3b 5863 a3bb
00000110: d917 d0bb 75db 41bb fd97 d03b fc57 a239
-0.00050817465 0.00052928424 -0.0013914123 -0.0012575468 -0.0023229036 -0.0071110055 0.0061841425 -0.0021725176
-0.00039136427 -0.00626872 0.004266352 -0.0024081792 -0.0038993515 -0.0026915742 -0.004415219 -0.00028015324
0.005644723 0.0076340763 0.006283212 0.0050296537 -0.007619466 0.0066925087 0.0051167537 -0.0047588535
0.005104082 0.0073729306 -0.0061422065 0.0012750538 -0.0053512044 -0.0018651452 0.006419676 -0.008158992
0.0043623582 -0.0026667335 0.00543463 0.0018094605 0.0065522413 0.008072901 0.0006258415 -0.0020882015
0.0029726604 0.0013613703 -0.0081085 -0.0022299625 -0.00038010735 -0.0013278287 -0.0065279338 -0.010080142
0.004752912 0.0003578191 0.00404476 -0.0046098055 -0.0027901905 0.0037771417 -0.0063784933 -0.00047895254
0.0035327002 0.0038767087 0.0059485612 -0.002207872 -0.004336109 0.0067477347 0.0027180803 0.0018265634
-0.0005369341 -0.00042962073 0.0034012094 -0.004986208 -0.006350499 -0.002958027 0.0063657747 0.000309646

state_embedding_layer.layer.weight f4 [72, 66]
00000000: 66c9 babc ec20 da3c abd2 f03a c6f9 9abd
00000010: 19f9 883d c4ab 8c3d 13d5 643b 84c9 86bd
00000020: d07f 54bd 5ee3 d738 d118 94bd 1a4c 91bd
00000030: 6f3e 81bc 6d85 0cbd 65f6 ca3c bd4c 0bbd
00000040: b6a6 84bc c009 4fbd 9334 e3bd c1a4 d63d
00000050: 1517 dc3c cd7e d83d ad79 b1bc cc3d f7bc
00000060: 89d4 e9bd afbd 47bd bfa6 b03d 605e fabd
00000070: 3f49 25bd 16a1 943d 986c 923d 7ef4 393d
00000080: 4aac b7bc 2945 fcbb 3d08 b0bc 0d31 32bd
00000090: 52d3 5a3d 4123 2cbd 590f 92bd 4c48 c23c
000000a0: f719 bbbd 424e d9bc 91d9 843d af0f 313d
000000b0: f533 cb3d 23e4 acbd 5a03 593b c114 0fbd
000000c0: 270f 89bd 0b55 90bd 2d63 cd3c 0c18 c03b
000000d0: b29f 90bd e798 bebd c221 debd 1a4f e93d
000000e0: baa3 e7bc 6c27 18bd 5451 59bd 36e9 87bd
000000f0: eaad f5bd b7e3 a0bd 7735 8a3d 0430 b73c
00000100: 2871 50bd 29f3 5dbd 7100 9e3d ba1f b13d
00000110: becb f73d d259 083d 3bd4 7d3d a9db 33bc
00000120: 35fb 8ebd 39f3 f9bd ba73 943d b6a2 80bc
00000130: 40d4 493d b018 073c 6088 f0bd 7f47 80bd
00000140: 06c5 173d 9bc4 b9bc aa75 f5bd ad1f 373d
00000150: 1725 e93b 6f23 1fbd 0257 4d3d c228 de3c
00000160: 8db8 30bd 55e9 de3d 0ce1 833d f4af 8f3c
00000170: 8089 d7bc dcef cfbd 3b1a bd3d 7fd2 0bbd
00000180: 79f3 a7bd c25f a03d 8966 2a3d 134f e43c
00000190: c5f6 d0bc df76 27bd d8e6 9a3c e831 c33d
000001a0: 3857 a03c 0855 6ebd 757b ff3d cec0 9b39
000001b0: fb32 c23d 0158 043d a7fa ea3d 8b18 953d
000001c0: 6ba7 84bd 133f ac3d 4c90 e3b9 fa2b c6bd
000001d0: 0244 a5bc 986f dcbd f193 70bd c1e5 a7bd
000001e0: 92a0 b23d 6e2d abbc 6026 93bc 9bc3 773d
000001f0: f272 5b3d a5a4 9abd bb2a 433d dee6 5f3d
00000200: 6c7c bdbd 0f61 de3d 516c 90bd d394 33bd
00000210: e81c d1bd 882e e13d e647 cf3c 54e6 d03d
00000220: 42d6 223c 1dd1 833d 5c41 19bd 8d8b cabd
00000230: 7e72 933c c977 24bc 79a3 56bc 14d9 70bd
00000240: 561a 7cb9 e220 0b3d 7bd9 313d b8bb c7bd
00000250: 0a58 713d d7eb 283c ce97 b13d 8db6 b73d
00000260: 9b45 c2bd ed85 f63d e0ce f3bd 7e42 883d
00000270: 9e4a 0b3c 4649 783d f996 83bd b037 983d
00000280: e040 6abd d72b dabd 40d6 1a3d 5f77 833d
00000290: 53f5 f43d 549a 6ebc 0952 f03d 72db 9b3d
000002a0: ebb3 80bd 7552 babd 98bc 933d 7de8 94bd
000002b0: 9ec2 6f3d 0bed dbbd 8947 b43d fe38 1e3d
000002c0: cb15 8ebc 4cb3 673d d916 b8bd ca68 e9bc
000002d0: 39b0 3fba 33a9 8bbd 2b0e ddbc e25d 74bd
000002e0: e44d df3d cf84 c83d f45c c93d 2786 bf3d
000002f0: 151c febd 9319 0c3d 3033 233d 6182 bcbd
00000300: d7a0 2c3d 0b55 9abd bff6 6c3c b542 153d
00000310: 118f cd3d 4ae0 90bd b7be c5bd 0ec8 e63d
00000320: 01ce 563d 44d8 723d 5b6d 383d a851 27bd
00000330: b07b 9a3d 455a e1bd 5075 943c e2d4 683d
00000340: 1df8 ad3d 3004 79bd f7fa abbd e95d 3c3d
00000350: 5f90 c4bd b8b5 d0bd e87a e2bd fd45 6cbd
00000360: 19a2 c3bc a38b 8fbd 9ace 65bd b221 d9bd
00000370: 891e 9c3d 5419 f2bc b152 a3bd 3ecf 073d
00000380: 32c0 bebd ca92 b23d fd81 913d 8bd9 f2bd
00000390: 5169 c6bd aa0c a7bd 56b4 8abd 987a 823c
000003a0: 3b31 fbbd 998e bbbd efdb 613d 8bf5 36bd
000003b0: f044 43bd f3ab cabd e039 503d 4b64 033c
000003c0: 001e 45bd 2f33 98bd f83b e63c 7aaf 023d
000003d0: 26f1 5a3d 1ba8 173d 8f10 aabc c488 c2bd
000003e0: ae87 a03d 3ed6 5e3b 6158 9abd d157 dc3d
000003f0: bf36 8c3d f308 c6bd 405a 75bd 37c5 1abd
-0.022801112 0.026627026 0.0018373331 -0.07567172 0.066881366 0.06868699 0.0034917041 -0.06581405
-0.051879704 0.00010294349 -0.07231296 -0.07094593 -0.015776841 -0.034306932 0.024775693 -0.03400873
-0.016192775 -0.050546408 -0.11094012 0.10480643 0.026866475 0.1057106 -0.021664465 -0.030180834
-0.11417491 -0.04876488 0.08625554 -0.12225032 -0.040353056 0.07257287 0.07149619 0.04539918
-0.022421021 -0.007698674 -0.021488303 -0.04350381 0.053424187 -0.04202581 -0.071318336 0.023716114
-0.09135812 -0.026526574 0.0648681 0.043227848 0.099220194 -0.08441951 0.003311357 -0.0349319
-0.06692343 -0.07047471 0.025071705 0.0058622416 -0.070617095 -0.093065076 -0.108462825 0.113920406
-0.028276313 -0.03714697 -0.053056076 -0.06636278 -0.11996062 -0.07855933 0.06748479 0.022361763
-0.050889164 -0.054186974 0.07714928 0.086486295 0.120994076 0.033288784 0.061969977 -0.010977664
-0.06981508 -0.12204594 0.072486356 -0.015702587 0.049274683 0.008245632 -0.117447615 -0.06263637
0.03705313 -0.022676757 -0.11985333 0.044707943 0.007115017 -0.03885215 0.050131805 0.027119044
-0.04314475 0.10884348 0.06439409 0.017539956 -0.026310682 -0.101531714 0.09233519 -0.03413629
-0.082007356 0.07830764 0.04160169 0.027869737 -0.025508294 -0.04088485 0.018908903 0.09531003
0.01957284 -0.05818656 0.124747194 0.00029707554 0.0948238 0.03231049 0.114735894 0.07280072
-0.06477245 0.08410468 -0.00043404324 -0.096763566 -0.02017403 -0.10763472 -0.058734838 -0.08198119
0.087220326 -0.020895686 -0.017962635 0.06048928 0.053576417 -0.07550935 0.047648173 0.05466353
-0.09252247 0.10858356 -0.0705191 -0.0438431 -0.102105916 0.10995203 0.025302839 0.102001816
0.009938778 0.064363696 -0.037415847 -0.098898984 0.01799893 -0.010038325 -0.013100498 -0.05880077
-0.00024042404 0.033966906 0.043420296 -0.097526014 0.05892185 0.010310135 0.086715326 0.08970366
-0.094859324 0.12037263 -0.11904693 0.066533074 0.008501677 0.060616754 -0.0642528 0.074324965
-0.057190776 -0.10652893 0.03780198 0.064192526 0.119608544 -0.014563162 0.11734397 0.07610215
-0.06284317 -0.09097759 0.07213706 -0.07270906 0.05853521 -0.10738572 0.08802707 0.03862857
-0.017344376 0.056567475 -0.08988733 -0.02849235 -0.0007312331 -0.068193816 -0.026984295 -0.059659846
0.10903528 0.09790956 0.098321825 0.093517594 -0.124077 0.034204077 0.039843738 -0.09204555
0.042145576 -0.07535752 0.014463126 0.03644057 0.100370534 -0.0707403 -0.096555166 0.11268626
0.052442554 0.05928828 0.045026165 -0.040849358 0.07543123 -0.11003546 0.018122345 0.056843646
0.084945895 -0.06079501 -0.08397477 0.045987997 -0.09597849 -0.1019091 -0.11058599 -0.057683934
-0.023881005 -0.070090555 -0.056105234 -0.1060213 0.076230116 -0.029553093 -0.079747565 0.033156626
-0.09314002 0.08719404 0.071048714 -0.11857899 -0.09688056 -0.08156712 -0.067726776 0.015927598
-0.12265249 -0.09158058 0.055141386 -0.04466776 -0.047673166 -0.09896078 0.050836444 0.008019517
-0.048124313 -0.074316375 0.028104767 0.03190563 0.053452633 0.037025552 -0.020759849 -0.09498742
0.07838379 0.003400221 -0.07536388 0.10758937 0.068463795 -0.09669676 -0.059900522 -0.037785735

state_embedding_layer.layer.bias f4 [72]
00000000: cdc2 f1bb 5651 813b c379 e8bb baea 303b
00000010: fa58 24bc f9cd 02b9 6cfa 503b a56b 7bbb
00000020: 98c4 cbbb 4e7b 36bb 8162 4e3b b659 bbbb
00000030: 6445 8d3b f387 143b 7e8a d93b cb73 433a
00000040: a574 1dbb f82a 78ba b3d0 a23b cd21 5ebb
00000050: 5dfd 9f3b 38f2 8e39 576b 16bc 6f5d 563b
00000060: 7871 60bb 0bf5 d53b 5325 cfbb a85d 143b
00000070: e59b 2d3b b2db ed3b 051a dbbb 8007 ca3b
00000080: 6e9b bfbb 2be0 e0bb 73a5 f8ba 240c 1e3b
00000090: c2c2 1ebb 5d35 4b3b 0863 de3a bda3 f4bb
000000a0: 7630 adbb 5851 ba3b 14b0 b1bb dcab abbb
000000b0: 9bf3 023c 62a1 023b 0bf8 e1ba 40e1 ff3b
000000c0: b034 093b d09f 57bb 63ea cbba 0a43 273c
000000d0: 59ee 80bb 81ce 8239 71e2 153c 100a 1bbc
000000e0: 5fc1 953b abbd 16bb 3e98 023c 6c41 ceba
000000f0: dde0 0e3b 0163 b83b aa3c 6f3b 2908 05bc
00000100: 2210 e1bb ca69 2ebc 454a 5b3a 2da7 ca3b
00000110: aa0e a3b9 b479 dc3b 45c3 00bc f6fc 083c
-0.0073779584 0.0039464636 -0.0070945933 0.0026995377 -0.010030979 -0.00012474497 0.0031887544 -0.0038363722
-0.006218504 -0.0027844491 0.0031491818 -0.0057174815 0.0043112505 0.002266404 0.006638824 0.0007455914
-0.0024025824 -0.0009466852 0.0049687265 -0.0033894659 0.004882498 0.00027264818 -0.009180865 0.00327095
-0.003424732 0.0065294555 -0.006321588 0.0022638831 0.0026490625 0.0072588557 -0.0066864514 0.006165445
-0.005847386 -0.0068626604 -0.0018970206 0.0024116123 -0.0024224971 0.0031007149 0.001696677 -0.007465808
-0.005285318 0.0056859665 -0.0054226015 -0.005238993 0.00799265 0.0019932617 -0.001724006 0.0078088343
0.0020935945 -0.0032901652 -0.0015557524 0.010208854 -0.0039346633 0.0002494939 0.009148226 -0.009462848
0.004570171 -0.0023001235 0.007970868 -0.001573605 0.002180151 0.0056270366 0.0036504664 -0.008119621
-0.0068683783 -0.010645339 0.0008365254 0.0061844797 -0.00031100708 0.0067283753 -0.007859056 0.008361092

tfm.layers.0.attention.query.layer.weight f4 [72, 72]
00000000: 727f e4bc f9db c63d e080 a1bd fa6a ac3d
00000010: 50cc c33c e2ef c83d a16c 90bd ec22 b7bd
00000020: 2ce5 50bc 0688 67bc 6aa0 afbd 2a03 e4bd
00000030: 7d88 90bd ad3a e93d ce43 de3d ff0d f0bd
00000040: ac54 55bd fc03 5b3d e690 9b3d 51dd c63d
00000050: 7eaf bebd 35e4 823d 8dfc 59bd 45d0 62bd
00000060: 7b92 c83d b1f7 4e3d 8309 eb3d 10c0 b13b
00000070: 63e3 873c 6b6d 88bd b895 e2bc 5cd6 eb3d
00000080: 87c0 f8bc 73dc 2b3d 23b0 f2bc 8662 c0bd
00000090: 1b88 cebd 26f8 e23d f4a7 4ebd c9a2 b6bd
000000a0: fdaf b5bd 99f7 c13d 15b8 5d3c d83d 9e3b
000000b0: 5c7e c6bd 28d4 96bd ac2e babd f6d0 143d
000000c0: 5af5 52bd 4918 f4bc 9d7e 573b 5e40 3bba
000000d0: 0cf3 c43c 0467 13bd ddcb 96bd 0df8 0cbd
000000e0: a727 303d aaf9 bfbd 6362 e4bc 5f70 66bd
000000f0: 82e9 063d 4e63 99bd a95b cb3d fbc4 d13d
00000100: 92cb b9bd a100 f43c 414d f4bd 7745 213d
00000110: fd93 aa3d c9ff 41bc dee3 793d 0ee6 3dbd
00000120: 8bd6 7abd be94 003d d737 9fbd e5b8 45bd
00000130: 5077 a43d 9b06 633d 3d35 a33d 8039 59bc
00000140: ce7c e73d 238b a43d 1fd4 5e3d 74f0 953d
00000150: e36b d7bd 80be 7fbd 1a64 aabb db27 913c
00000160: 15ac f03d 6216 d83d fcca 68bd b61c a83d
00000170: 95bd 543d 30b6 83bd c147 edbd 6246 5d3d
00000180: 591b 4f3c 5eb9 c73c 6879 b23d c3e1 04bd
00000190: af10 51bd 4ecd 6f3c f420 46bd 2e28 90bd
000001a0: 39b8 fbbd 0bb4 c8bd f123 86bc cefb ca3d
000001b0: db02 a4bd 847d 833c f748 663d 45ac 423c
000001c0: 711a 2c3b cb5f b83d 64a9 d9bd 9497 bd3d
000001d0: 08fe bc3d b428 c53d 8967 be3d 3310 76ba
000001e0: fc6d c6bd 175e a1bd 2b7c cebd 2a92 8dbd
000001f0: af3a cabd ded8 b03d 21f5 393d f416 55bd
00000200: baa2 9c3b 3901 b93b 573b 54bb 2462 b13d
00000210: 9b30 5d3d 0a6c aabd 4605 f03d a2fc 2bbd
00000220: 74b8 33bd c7a9 fc3d 5c87 9fbd 8525 c3bc
00000230: 609e 933b 46a3 dbbd 2883 a03d c94d b33d
00000240: 6360 edbd 916a 92bc 61f1 a63c 8430 923d
00000250: e095 373d 4fd8 babb 33c3 cd3d 2380 c0bc
00000260: c5c0 e13b b8ec 9abd 7cfa 8cbd 5202 0abd
00000270: 9f9e dbbd 4817 78bc fb2e c03c 5387 a8bd
00000280: f6ac c9bd 5a13 d33d ff98 53bd 76a1 aabd
00000290: e54c bebc 4330 74bd 0f5d eebd 1789 33bc
000002a0: 3b69 5bbd f775 0abd 9f31 5b3d 813d ba3b
000002b0: 438e c73d 892c f2bd a3b4 d43d 103b 833d
000002c0: 3bb8 1dbd d511 a73d 0837 da3d 9965 593c
000002d0: bce0 eb3c 4936 12bd d424 18bc 0d85 30bc
000002e0: 0d42 64bd fd6b ca3c 92c4 4abd b20d 663d
000002f0: e173 8b3c a7f5 b9bd 1046 db3d 6e3c 1c3d
00000300: 0e50 683d ee03 f5bd f5a3 cf3d e7d6 0b3d
00000310: 2aa5 0dbc 2f8b a2bd e29a bb3c 7d6d 243d
00000320: 7eba 1e3d 2f8f aa3d de52 dbbd 3a0a c2bd
00000330: 4864 e03d 16c4 d63d c59a 20bc 02d5 8a3d
00000340: 45ac ae3d 911f b53d 1a80 6ebd 3a91 21bd
00000350: fa3e 88bd 72f2 dfbc 4a1c d83d d815 1abb
00000360: 97a4 cdbd 8c1b b03d 22aa 4a3d 020c 9a3c
00000370: c150 8bbd 3ed1 b03d 66db cfbd 2a0f 813d
00000380: 44ae 04bc 3687 3cbd ac86 debd f72f a53c
00000390: e443 73bd 001f 32bd 5892 793d 4a43 a4bd
000003a0: 7960 e83d 0803 c93d b550 a63d bf04 9f3c
000003b0: 0f30 a9bd 9be4 0abd 6eb2 6abd 21a2 2abc
000003c0: 5940 eabd 02ca 62bd ce54 82bc 075e 903b
000003d0: 1c4a 12bd 03b6 a53c 0d43 8abd d8be a7bd
000003e0: 5c44 babd ecee e23d 98ef 823d bcaa c8bd
000003f0: 9d47 d6bd d194 25bc ec41 87bd 8e20 063d
-0.027892802 0.09709925 -0.07885909 0.08418842 0.023901135 0.09811379 -0.07051969 -0.08942208
-0.012749951 -0.014131552 -0.085755184 -0.11133416 -0.07057283 0.11388145 0.108527765 -0.117214195
-0.052082703 0.053470597 0.075959966 0.097101815 -0.09310816 0.06391183 -0.053219367 -0.055374403
0.09793564 0.050529186 0.114764236 0.005424507 0.016587919 -0.06661495 -0.027659282 0.11515495
-0.030365242 0.041958284 -0.029625004 -0.09393792 -0.10084554 0.11082487 -0.05045314 -0.089177676
-0.08871458 0.09471054 0.013532658 0.0048291497 -0.0969207 -0.07364684 -0.09090933 0.036332093
-0.051503517 -0.029796736 0.0032881864 -0.00071430753 0.024041675 -0.035986915 -0.073631026 -0.034416247
0.043006565 -0.093737915 -0.027878946 -0.05625951 0.032937534 -0.07489644 0.09929592 0.10242649
-0.09072031 0.029785456 -0.119287975 0.039372887 0.08329008 -0.011840769 0.061008327 -0.046361975
-0.06123976 0.03139185 -0.077743225 -0.048272032 0.080305696 0.05542622 0.07969139 -0.013258338
0.113031015 0.08034351 0.054401513 0.073212534 -0.10518625 -0.062437534 -0.0051999213 0.0177192
0.11751572 0.10551144 -0.056834206 0.08208601 0.051938612 -0.06431234 -0.115859516 0.0540222
0.0126407975 0.024380382 0.08714563 -0.032441866 -0.0510413 0.014636351 -0.04837127 -0.07038914
-0.12290997 -0.097999655 -0.01637456 0.09911309 -0.08008357 0.016051061 0.05622193 0.011881893
0.0026260877 0.09002646 -0.10628012 0.09257427 0.0922814 0.09626904 0.092970915 -0.0009386569
-0.096889466 -0.07879274 -0.10082277 -0.06912644 -0.09874474 0.08635114 0.04539979 -0.052023843
0.0047801407 0.0056458977 -0.0032384002 0.08661297 0.054001432 -0.08321388 0.11719756 -0.041988976
-0.04387708 0.1233707 -0.077894896 -0.023821602 0.0045049638 -0.10724501 0.07837516 0.08755071
-0.1159065 -0.01787308 0.02037877 0.0713816 0.044820666 -0.0057020555 0.10046997 -0.0234986
0.006889435 -0.07564682 -0.068837136 -0.03369362 -0.10723614 -0.015142269 0.023459902 -0.08228936
-0.09847443 0.103064254 -0.05165958 -0.083315775 -0.023230026 -0.05961634 -0.11638843 -0.010957978
-0.053567152 -0.033803906 0.05351412 0.0056836014 0.09743931 -0.11824901 0.10386016 0.0640775
-0.038505774 0.08157698 0.10655028 0.013268852 0.028793685 -0.0356963 -0.009286124 -0.010773909
-0.055727053 0.024709696 -0.04950387 0.056165405 0.017023029 -0.090800576 0.10706723 0.038143568
0.05671697 -0.1196364 0.10138694 0.034140494 -0.008645335 -0.079367034 0.022901002 0.04014348
0.03875207 0.08328091 -0.10709165 -0.09474607 0.10956627 0.10486619 -0.009802525 0.06778909
0.085289516 0.088439114 -0.058227636 -0.03944514 -0.06652637 -0.027337287 0.10552271 -0.0023511555
-0.10041159 0.08599004 0.049478658 0.018804554 -0.06802512 0.0863366 -0.10149269 0.063017204
-0.008098189 -0.046027385 -0.1086553 0.020164473 -0.059390917 -0.043486595 0.06093058 -0.08020647
0.11346526 0.09815031 0.081208624 0.019411443 -0.082611196 -0.03390942 -0.05729907 -0.010414631
-0.114380546 -0.05536843 -0.015909579 0.00440574 -0.035715207 0.020228392 -0.0675107 -0.081906974
-0.0909507 0.11080727 0.06393355 -0.0979819 -0.10462878 -0.010106281 -0.066043705 0.03274589

tfm.layers.0.attention.query.layer.bias f4 [72]
00000000: 15da 92b9 6dd9 5339 b3a6 053c 0c8d 013b
00000010: 99e9 11bc b91c 0bbc e233 b83b 0860 83bb
00000020: 3b19 2cbb d7a0 5fbb 7d83 963b c732 eebb
00000030: 9247 873b 54bd 723b 76dc 8a3b fdbc cfbb
00000040: 3956 283b 0986 80ba c80f 3abb 0051 28bb
00000050: 13d0 8b3a 24a3 b3ba 6a5f 8cbb 0594 2c3b
00000060: b841 b2b9 1709 92bb e185 043b 756b 073b
00000070: 1603 aabb a25a 0d3b 9b91 abb9 d0e1 09bc
00000080: b852 073c 0ab0 ae3b 8fdf 843b a730 663b
00000090: 707c af39 92e0 b0ba afb6 99ba c08e 5a39
000000a0: 248f b53a c1f9 f53a 0a05 36b9 4c6d b939
000000b0: 16bd 9dbb 8e43 34b9 43a3 5a39 a454 94ba
000000c0: 4fed 333c 2810 d6bb 0716 19bc a4d2 09bc
000000d0: a7cc 16bc 0338 cdbb 9825 253c 5cd7 26ba
000000e0: 56c0 e3bb 00b8 c2ba 1d4b f53b 4662 21bc
000000f0: 4bf2 dbbb 96fa 0dbc d172 0a3b 79b7 11bc
00000100: a836 f03b 023a e9bb 829d febb 8848 dd3b
00000110: 1d7b 773b 6c81 cf3a 65ea c4ba 1597 e6bb
-0.00028009774 0.00020203525 0.00815742 0.0019767908 -0.008905792 -0.008490735 0.0056214193 -0.0040092506
-0.0026260156 -0.0034122968 0.0045933113 -0.0072692367 0.004128405 0.0037039118 0.004237707 -0.006339668
0.0025686158 -0.0009805571 -0.0028390754 -0.0025683045 0.0010666869 -0.0013705236 -0.004283835 0.0026333344
-0.0003399977 -0.00445665 0.00202214 0.0020663415 -0.005188356 0.0021568914 -0.00032724146 -0.008415654
0.008259468 0.005331044 0.0040549706 0.0035124214 0.00033471314 -0.0013494662 -0.0011727418 0.00020843279
0.0013851863 0.0018766449 -0.0001735875 0.00035367382 -0.0048138006 -0.00017191304 0.0002085092 -0.0011316729
0.010981872 -0.0065326877 -0.009343631 -0.008412037 -0.009204066 -0.0062627806 0.010079764 -0.00063644885
-0.0069504185 -0.0014855862 0.007485761 -0.00985009 -0.006712233 -0.008665701 0.0021125565 -0.008893841
0.0073307343 -0.007117511 -0.0077702412 0.006753031 0.003776259 0.0015831417 -0.0015023468 -0.0070370534

tfm.layers.0.attention.key.layer.weight f4 [72, 72]
00000000: 89ab 8d3d 66b2 96bd 90d1 db3c 0e71 6fbc
00000010: 3d9b 06bd ac11 cc3b 7df7 9f3d aedb 993d
00000020: 597f 6bbd 3846 c33d adf3 6dbd b041 353d
00000030: 51e7 b03d c059 34ba 5a81 3fbc c308 5c3d
00000040: efe3 e13d 8e18 16bd 3f98 5a3d 6278 1fbd
00000050: 085e d6bd ac57 ae3c 1b1e 3a3d 6d66 eabd
00000060: d343 d0bd 3455 cbbd 9abf e4bb 63f4 cabd
00000070: b364 51bd 168e efbd ae69 283d ef5d 2e3d
00000080: 46af 83bd 9dad 9b3d 1789 103d 9cec d0bd
00000090: d144 e33d 8e94 ce3d cd90 b03c fdca 84bc
000000a0: 9031 eebd 4ac9 9e3c 38f9 d93d bfda cdbd
000000b0: d51f 39bd 349d 8a3c 0ea8 dcbd dfc3 763d
000000c0: c767 c33d e130 d63d 6323 8dbb 7ad0 f2bd
000000d0: ec88 22bd 0fb2 8abc 5906 ad3c dffc cd3d
000000e0: 16f7 b5bb d7c3 f23d 210b f03d d771 c1bd
000000f0: 4720 e3bd 7717 91bd f85f c8bd 5498 f2bc
00000100: 2fab c5bd b04f 47bd 7f88 bfbd 29d6 863d
00000110: 95f8 51bc 8185 843d 989e b03c 0ef9 713d
00000120: ffd3 833c 7981 7cbc 7712 5bbd c31d 70bd
00000130: 75da 9abc 6a26 8f3d 2d15 9b3d ceab e5bd
00000140: c0f0 2ebd 8c36 383d 98b1 99bd b822 b23d
00000150: 980c 853d 7543 ffbc f0dd bbbd f829 f53c
00000160: be1e c13d 11bd b83d 84e9 f73d d146 953b
00000170: 9c51 d63d 3e01 7ebd ca17 18bd ef79 83bc
00000180: 18a8 90bd baec b9bc 7dac c8bd 07a7 c23d
00000190: e689 273d ef77 12bd f1d4 24bc 2742 8abd
000001a0: ecea e8bd 2420 45bd fae9 8b3d 0578 e8ba
000001b0: 8a7a 2c3c ac85 963d f59a 8fbc d044 4cbd
000001c0: ccfe 403c e0b7 a3bc 7859 05bd 265a dc3c
000001d0: 1e33 993a e45e dfba a95b 173d e8cb fbbc
000001e0: 7425 773d 9071 d2bc c14a a83c 31d9 cc3d
000001f0: 29c8 4abd a63f 94bd 59b5 043d 9f45 d6bc
00000200: 58c4 b4bd d4d9 8b3d b08d b83d bad8 313d
00000210: 0f4f 9dbb d8d9 4c3c b9b9 eabd 0bab 28bd
00000220: 1a36 8a3b 37c1 2c3d 595e b83d 8136 553d
00000230: 2ce3 b33d 4d12 efbd 7e4d 723d 7294 e03c
00000240: 61b3 61bd f5b5 efbd eb18 db3d 12cb 21bd
00000250: 96cc d3bd 55b3 acbd d4d0 073d 32aa 8f3d
00000260: bd73 b43b c117 983c 567e 73bc 5787 883c
00000270: 1c7d c7bb 49ff bd3d 0366 533d 1bbe 44bd
00000280: 62ce 263d 3c21 34bd 307e 91bd 6687 5abd
00000290: 561f cb3d c81c 873d 746f ddbd 647e d13d
000002a0: 03cf afbd 9d89 a73d a3b8 3d3c 0053 1ebd
000002b0: 521b 803b f2dd 83bd 232a e03d c3dd 2ebd
000002c0: c0f8 0bbd 8094 c2bd 4f12 a63d 4e03 bb3d
000002d0: b830 b53c 1ad6 7ebc 5add 223d 7e5d 42bd
000002e0: 31ea de3d 5610 19bd 782c 183d 205a ce3d
000002f0: a759 ebbc 4608 c53d 9342 833d 9040 d4bb
00000300: d941 29bd 082b b83d c7c8 1d3d 561c d83b
00000310: d27d 31bd cf01 ebbd a05a c5bd cc49 1b3a
00000320: bed1 e1bd 76d7 e1bd 4292 d8bc 6706 57bc
00000330: 52c8 b23d 6b5b a6bd ac64 f0bd 3c31 72bb
00000340: 6a95 f0bd 9d78 9ebc e41e b53d 82b8 cbbd
00000350: 588a f53c d94f 03bd dcc5 f93d b486 af3b
00000360: 6d2e 30bc 7942 d6bc 5268 72bd 0273 ac3d
00000370: da89 75bd 7a7e de3d 039b a83d 3801 d0bd
00000380: 9d20 b43d fbfa 00bb b51f 993d 3350 6fbd
00000390: f18b bf3c 9150 383b 8e5b 643c c036 a3bc
000003a0: 5e51 62bc 0d52 7dbd 6ff5 bf3d 3a5f 4d3d
000003b0: 3993 6fbd 347c 66bc fd91 cdbd e291 12bd
000003c0: 970e b13c 6b40 ec3d 2fc9 f2bd 12bc f4bc
000003d0: 0413 a1bd 8805 ac3d 1922 ddbd 26e9 e13c
000003e0: f205 eb3c 510a 843d 0abc eb3c eabc 633c
000003f0: a6c6 f03d caa3 79bc 7036 ba3d 7118 893d
0.06917483 -0.073582456 0.026833326 -0.014614357 -0.03286289 0.0062276926 0.078108765 0.07512604
-0.057494495 0.095348775 -0.058093715 0.044252098 0.0863787 -0.0006879829 -0.011688555 0.053719293
0.11029803 -0.03664451 0.05336785 -0.038933165 -0.10467154 0.02128204 0.045438867 -0.114453174
-0.101691864 -0.099283606 -0.0069808485 -0.09909894 -0.051121425 -0.116970226 0.04111641 0.04257005
-0.06429915 0.076014735 0.03528699 -0.1020138 0.1109711 0.10086928 0.021553421 -0.016210074
-0.11630547 0.019383091 0.10643238 -0.10051488 -0.045196373 0.016920663 -0.107742414 0.06024539
0.09541278 0.10458542 -0.004307197 -0.1185617 -0.03968136 -0.016930608 0.02112119 0.10057997
-0.0055531366 0.1185376 0.11720873 -0.09445541 -0.11090141 -0.07084554 -0.097839296 -0.029613651
-0.09651791 -0.04865998 -0.093522064 0.065838166 -0.012815614 0.06470776 0.021559998 0.059075408
0.016092299 -0.015411728 -0.053484406 -0.058622133 -0.018902997 0.06989749 0.07572398 -0.1121441
-0.042710066 0.044973895 -0.075045764 0.08698028 0.06496543 -0.031160096 -0.091731906 0.029927239
0.09429692 0.090204366 0.121050864 0.004555561 0.104647845 -0.062012903 -0.037132062 -0.016049353
-0.07063311 -0.022695888 -0.097985245 0.09504514 0.040902995 -0.03575891 -0.010060535 -0.06750899
-0.11372933 -0.048126355 0.06831737 -0.0017735964 0.010527262 0.07349715 -0.017529944 -0.049870312
0.011779498 -0.01998514 -0.032556027 0.026898455 0.0011688208 -0.0017041829 0.03695265 -0.030736879
0.060338452 -0.025688916 0.020543458 0.100023635 -0.049507294 -0.072387025 0.03239951 -0.026156245
-0.08826512 0.06828657 0.090114 0.043419577 -0.0048006843 0.01250311 -0.11461205 -0.041178744
0.004217875 0.04217645 0.090023704 0.052053932 0.08783564 -0.116734125 0.059155934 0.027414534
-0.05510271 -0.117046274 0.10698112 -0.039500304 -0.10341756 -0.08432642 0.03315814 0.07014884
0.005506961 0.018566014 -0.014861664 0.016666098 -0.0060879122 0.092772074 0.051610958 -0.04803286
0.040724166 -0.043977007 -0.071041465 -0.053351782 0.09918086 0.065972865 -0.108122736 0.10229185
-0.08584406 0.081805445 0.011579665 -0.038653374 0.003909507 -0.06438817 0.10945537 -0.042691957
-0.034172773 -0.095009804 0.08108961 0.0913149 0.022117957 -0.0155539755 0.03976188 -0.047452442
0.10884512 -0.037369095 0.037151784 0.10075784 -0.028729273 0.09620719 0.064091824 -0.006477423
-0.041322563 0.089925826 0.038521554 0.006595175 -0.043332882 -0.11474954 -0.09636426 0.00059237774
-0.11026333 -0.11027424 -0.026436929 -0.013124085 0.08729614 -0.08122905 -0.11737952 -0.0036955616
-0.117472485 -0.019344622 0.088437825 -0.099473014 0.029973194 -0.03205857 0.12195942 0.005356634
-0.010753256 -0.026154744 -0.05918152 0.084203735 -0.05994592 0.10863967 0.08232691 -0.101564825
0.08795283 -0.0019680846 0.07476751 -0.058426093 0.023382159 0.0028124193 0.013937844 -0.019923568
-0.013813345 -0.061845828 0.093729846 0.050139643 -0.05849001 -0.014067698 -0.10037611 -0.035783656
0.021613402 0.11535724 -0.11854779 -0.029874835 -0.07864955 0.083994925 -0.10797519 0.027576994
0.028689358 0.0644728 0.028776187 0.013900021 0.11756639 -0.015236804 0.090924144 0.06694115

tfm.layers.0.attention.key.layer.bias f4 [72]
00000000: ea7b 8eb4 6961 f132 8e2e 49b4 0a30 cfb3
00000010: b6da 0234 4be0 0e33 3d6a 65b4 03e6 bfb3
00000020: 5c17 ee32 8dff eb32 bbda 02b4 75fe 25b4
00000030: 253d 46b3 369d 2634 85f8 ac33 7cde 41b4
00000040: 5de7 27b2 2547 df33 48bb 51b3 fce3 29b4
00000050: aa43 80b3 d2c9 7a34 0ef3 0034 20ec 4333
00000060: f7f1 eab4 b9c1 0335 fd2f 9e33 151b 8b35
00000070: 9c88 98b5 f3cb a9b3 3db4 b1b5 48c6 07b3
00000080: 1f7e 8435 1fe0 1e35 a4e1 eeb4 3146 b434
00000090: 52f3 c834 ed17 aab4 06a6 20b4 324f adb5
000000a0: 42c0 55b4 71ed 7633 8bec a034 7d28 11b5
000000b0: 3483 92b4 bba7 8e31 c0ed 0735 6fd5 d634
000000c0: 6afd a4b4 a925 0a34 ee46 9134 7f32 19b4
000000d0: 2ee6 82b3 86a1 fa34 2af1 18b5 22e9 6f35
000000e0: 26e7 1b35 3a37 2235 6f76 f5b3 8324 d234
000000f0: a09b 9d31 9149 1435 4589 bbb3 c038 12b3
00000100: ef2d 1d35 a1dd 9b33 6dbb 6234 3ea8 9234
00000110: 53a9 28b5 a337 9635 a6ea 3d34 3b95 3135
-2.653972e-07 2.810039e-08 -1.873652e-07 -9.647927e-08 1.218676e-07 3.3265945e-08 -2.1365936e-07 -8.9359695e-08
2.771747e-08 2.7473812e-08 -1.2186767e-07 -1.5459393e-07 -4.6156078e-08 1.5517148e-07 8.0545796e-08 -1.8055465e-07
-9.773285e-09 1.0397188e-07 -4.8831936e-08 -1.5822292e-07 -5.9727725e-08 2.3356486e-07 1.2009352e-07 4.561673e-08
-4.376195e-07 4.9083206e-07 7.3661774e-08 1.0364189e-06 -1.1364641e-06 -7.906774e-08 -1.3239984e-06 -3.1612473e-08
9.871472e-07 5.9185726e-07 -4.449513e-07 3.3578684e-07 3.7429942e-07 -3.1682376e-07 -1.496156e-07 -1.2912553e-06
-1.9907114e-07 5.749229e-08 2.997443e-07 -5.407563e-07 -2.7290082e-07 4.1518127e-09 5.063739e-07 4.00159e-07
-3.0731763e-07 1.2865952e-07 2.7059963e-07 -1.4267606e-07 -6.095466e-08 4.6683652e-07 -5.697535e-07 8.937369e-07
5.8078365e-07 6.043007e-07 -1.14302445e-07 3.9142114e-07 4.586994e-09 5.524135e-07 -8.732835e-08 -3.4044888e-08
5.85539e-07 7.258064e-08 2.1116075e-07 2.7317031e-07 -6.2831276e-07 1.1192063e-06 1.7687361e-07 6.61548e-07

tfm.layers.0.attention.value.layer.weight f4 [72, 72]
00000000: d5b5 133d 5b66 1fbd 28ac ea3b ea20 913d
00000010: 0e47 af3d 3353 8ebd ebe1 f1bd 91da ed3d
00000020: 7dfb f23c b319 d8bb d606 d03d 9ed7 efbc
00000030: 5818 febc 8d66 353d 09c6 943d 9547 71bd
00000040: 55c6 dcbd 79a4 a73c 0bdb 4a3d 78b9 a93d
00000050: de5f 9b3d 1244 b83c 9248 f43d 61ee f1ba
00000060: 2892 dd3d 6c1b 383d bb3a 28bc ac6f a83b
00000070: fe8e a43c 22d5 2f3c ff3e a2bd a7c6 cc3d
00000080: 8266 cc3d 4e12 843d 6c5e ab3d 3a0b 393d
00000090: 148e 5bbb b56f e4bd 152e 3abd 97f2 a4bd
000000a0: b7cf ca3c 1444 db3c 4364 50bd 52fa 823c
000000b0: d9ef 3f3d 3e72 b4bb b9d7 b8bd b7d9 bcbd
000000c0: de78 abbd db9e b33d 3d7a 1d3d 18cb a43d
000000d0: 1aef 97bc 3439 ca3d 0318 973d a79d dbbd
000000e0: 346e eabc 2998 93bd ebaf dc3d 3e0d 8bbd
000000f0: 707e 4bbd 0164 4dbd 2d7e f53d 83fe cf3d
00000100: b9c7 94bd d484 dbbd 0512 ac3d a819 b13d
00000110: a8a6 033d 846d 923c c86e 89bc cc22 b23d
00000120: 71af 9c3b f8ca 20bd 320d 21bd 9ff9 213d
00000130: 784d a3bb fa35 b6bd 7dd1 3fbd eaaa bb3d
00000140: a829 423d 1eb8 bc3d 2575 7a3d 57a9 7a3a
00000150: 39d5 f53c 2359 e2bd 30f5 e6bd ada5 c53c
00000160: b004 163d f6a5 c13c fe5e fc3c 216a de3d
00000170: c335 a33d 39bd 883d 0030 1f3c bffb a0bd
00000180: 5d3d 843d 203b c8bd 6fcd de3d 038d 0fbd
00000190: 9e2f 0e3c f460 df3d 003d e1bc 7039 99bd
000001a0: 4280 82bd 4e82 51bd c7f0 7c3d 91d0 8c3d
000001b0: e69a 9dbd c067 003d b70c c0bd ed23 bebd
000001c0: b055 f93d 63ce 4cbd 5fd1 b23d e1df ec3d
000001d0: 5c96 eebd ba80 9b3a 663d 863d 09a2 133d
000001e0: c1f6 01bd aceb 033d dc7a 95ba f684 babc
000001f0: a16c 203d 7690 eb3d 9736 a7bd fe17 c23d
00000200: ae41 e1bd 3c23 64bd 93ba 99bd 1c5c 653d
00000210: e3e8 f23d fc5f 6e3d 872a 63bc 569e 2ebd
00000220: 729f 67bc 7e56 b9bd caec 87bc f7e4 6bbd
00000230: 0fb3 c63d c132 333d f9f8 683d ccba aa3d
00000240: 8537 ea3d 7800 6dbd 0ac8 9bbb 88f0 5dbd
00000250: 17b0 7bbd 9e92 a8bb 2608 99bc 5160 babc
00000260: 75ea 15bd 55ee 7bbd 181c ad3d 436f 2fbd
00000270: d02d f0bd adac fbbc 59d3 02bc 3d0f b5bd
00000280: 28f4 623d 1728 a8bd 2224 ac3d a20a 733d
00000290: 2936 773d d251 88bd 1c3f 5a3d 6fe6 b7bd
000002a0: 7cbe d13d 0bde 5d3c a8d2 37bd f3a8 d73a
000002b0: 9b50 c3bd b80d c83d db2b 483c 03dd 403d
000002c0: 22d4 f23d b272 6d3d fbc7 90bd ef89 a93c
000002d0: 17fc 403d 779a 54bd 5190 c0bd 9627 63bd
000002e0: 4e20 003d dc89 273c 9bca e0bd 70c8 823d
000002f0: 0bcd 29bd 3dc8 d03d 0a52 a53d 9d73 993d
00000300: b28b b93d 676b 6fbd a123 8fbc 555b e53d
00000310: 45c4 bb3d 24b2 f33c b930 cabb 220d be3d
00000320: 01a2 cdbd 5617 523d 92d5 e5bd a4eb 6f3d
00000330: 0b9c b1bd a7b5 a13d 484f 343b 269e a03d
00000340: d460 c6bc 4d07 103d f8ff adbc f073 643d
00000350: c0ad 49bb fb22 523d e8ad 9a3c 2b9c 093d
00000360: 9d4b b3ba fda6 ad3d f983 423d 3096 c13d
00000370: 988e 843d c485 0e3d ca18 b23d b06c e63c
00000380: 9cfa c73b 51e7 42bd d067 7fba 8d24 5a3c
00000390: d567 e13d cd55 813d d7a6 2d3d cfec 7ebb
000003a0: 342a 3e3d 0988 993d 44b3 c1bd ade7 c9bc
000003b0: b2f0 e6bc 4d9e 89bd f1c3 d63c 28f6 593d
000003c0: c69d 423d 0202 d8bd 57f2 993d 72f3 debd
000003d0: df1c ae3c b914 653b ba6b ddbd c7b3 05bd
000003e0: c55e b7bd 0eaa 22bd cf6a c1bb c196 45bd
000003f0: 1f5f e33c e213 d13c 018a 523d 2b10 dfbd
0.03606208 -0.038915973 0.007161636 0.07086356 0.085584745 -0.06949463 -0.118106686 0.11613954
0.029660935 -0.0065948605 0.10157554 -0.029277619 -0.031017467 0.044287253 0.07264335 -0.058906157
-0.10780016 0.020464169 0.049525302 0.082873285 0.075866446 0.022493396 0.11927904 -0.0018457883
0.10818893 0.044948027 -0.010267909 0.0051402654 0.020087715 0.010731967 -0.07922172 0.099988274
0.09980489 0.06448804 0.08367619 0.045176722 -0.0033501433 -0.11154119 -0.045454103 -0.08054083
0.02475725 0.02676586 -0.050876867 0.015988503 0.046859596 -0.005506783 -0.09025521 -0.09221213
-0.08372663 0.08770534 0.038446654 0.080465496 -0.01854663 0.09874192 0.07377627 -0.10723429
-0.028617002 -0.072067566 0.10775741 -0.06789635 -0.049681127 -0.0501442 0.11986957 0.10155966
-0.072646566 -0.10718694 0.084018745 0.08647472 0.032141358 0.017874487 -0.016776457 0.08698043
0.0047816564 -0.039256066 -0.039319225 0.039544698 -0.0049836 -0.08897014 -0.046830643 0.09163459
0.047403008 0.09214805 0.061146874 0.0009561977 0.030008899 -0.11052158 -0.112772346 0.024126852
0.036625564 0.023638707 0.030807015 0.10860086 0.079692386 0.06676716 0.009716034 -0.07860517
0.064570166 -0.09776902 0.10879027 -0.03504659 0.008678345 0.10907164 -0.027494907 -0.074816585
-0.063721195 -0.05114966 0.06175306 0.068757184 -0.0769556 0.031348944 -0.09377425 -0.09284196
0.12174547 -0.050001513 0.087313406 0.11566139 -0.116497725 0.0011863925 0.065546796 0.0360432
-0.031729463 0.032207176 -0.0011404413 -0.022768479 0.039166097 0.11502163 -0.08164709 0.094772324
-0.109988555 -0.055697665 -0.07506289 0.055996045 0.11860826 0.058197007 -0.01386512 -0.04263147
-0.014137136 -0.090497 -0.016592402 -0.057591405 0.097021215 0.043749575 0.056878064 0.0833641
0.11436371 -0.057861775 -0.004754071 -0.054184467 -0.06144723 -0.0051444313 -0.018680643 -0.022751005
-0.03660055 -0.061506588 0.08452624 -0.042830717 -0.11727488 -0.030721987 -0.0079849595 -0.08840797
0.055408627 -0.082107715 0.08405329 0.059336312 0.060354386 -0.06656231 0.053282842 -0.089794986
0.1024141 0.013541709 -0.04487863 0.0016453549 -0.09536859 0.09768242 0.012217487 0.047085773
0.118568674 0.05797071 -0.07069393 0.020695655 0.04711541 -0.05190512 -0.09402526 -0.055457674
0.03128081 0.010225739 -0.10976144 0.06385887 -0.04145531 0.101944424 0.08072288 0.074927546
0.09059848 -0.058452036 -0.017473044 0.11199061 0.09168295 0.02974803 -0.006170359 0.09279849
-0.100406654 0.051291786 -0.11222376 0.058574334 -0.08672341 0.078959756 0.0027513076 0.078426644
-0.024216093 0.035163213 -0.02124022 0.05577463 -0.003077373 0.05130289 0.018881753 0.0335962
-0.0013679151 0.08479116 0.04748914 0.09452474 0.0647251 0.034795538 0.086961344 0.028127998
0.006102873 -0.04758388 -0.00097429473 0.013314378 0.110061325 0.06315193 0.04239544 -0.0038898473
0.046426967 0.0749665 -0.0945802 -0.024646604 -0.028190944 -0.067196466 0.026216479 0.05321327
0.047513746 -0.10547258 0.07516926 -0.10886277 0.021254001 0.0034954979 -0.10811563 -0.032642152
-0.08953623 -0.039712958 -0.005902625 -0.048239473 0.027755318 0.025522176 0.051401142 -0.10891756

tfm.layers.0.attention.value.layer.bias f4 [72]
00000000: 7267 18bb 99dc e7bb 0438 febb 3566 953b
00000010: 75d9 37bb 8b5e 08bc 8cfe 6c3b 2662 24bb
00000020: 95f1 363b ada3 2d3c 4295 b1bb fc47 aabb
00000030: 634c 513b cf7e 943b 95f5 06bc 6c14 133b
00000040: e8d5 763b 11da a13b 4ebf 983b add1 84bb
00000050: 5dd6 debb 90c5 543b 02f8 52bb 5f43 f33b
00000060: 05bb a93b 861c b0bb 964e 93bb dc54 173b
00000070: dcfa b0ba 7e27 de3a 6524 053b 50bd 99bb
00000080: 6d52 b7bb eeae cc3b 57b1 81ba 54ac b43b
00000090: 0b04 853b f3f5 e33b ff9c 90ba 06e7 d6bb
000000a0: 7846 dabb 0bf7 1bbb c2fb 56bb efbe a4ba
000000b0: 5b32 1e3a 4dfa 8a3b 7d3b 8eba e765 1f3c
000000c0: 220b e5bb 0dc4 b0ba 9443 e93b 6b88 b83b
000000d0: 6bb2 ca3a 37bb c7bb 3a85 16ba 0a57 fb3b
000000e0: 03ce 6fbb 5826 053c 47b4 923a a2ec c5bb
000000f0: b326 8d3b 9dfd 033c c1fc dd3b d2d3 c43b
00000100: d9e5 82bb 5a24 66bb 1d27 c93b 0b23 963b
00000110: a616 213c 29b8 b93a 884c e43b d7ca daba
-0.0023255018 -0.007075858 -0.0077581424 0.004559303 -0.0028053198 -0.008323322 0.0036162464 -0.0025082915
0.002791499 0.010598105 -0.0054194042 -0.0051965695 0.00319364 0.0045317183 -0.008237262 0.0022442592
0.003766412 0.0049393256 0.004661477 -0.0040533156 -0.0068004564 0.003246639 -0.0032191281 0.0074238027
0.005179765 -0.005374494 -0.004495452 0.0023091352 -0.0013502496 0.0016949025 0.0020315882 -0.0046917573
-0.0055945427 0.006246439 -0.000989477 0.005513707 0.00405932 0.0069568097 -0.0011033117 -0.006558302
-0.0066612326 -0.0023798372 -0.0032803868 -0.001256911 0.0006034725 0.004241264 -0.0010851469 0.009728885
-0.0069898525 -0.0013486162 0.0071186516 0.0056314967 0.001546455 -0.006095316 -0.0005741898 0.007670288
-0.0036591298 0.008126818 0.0011192643 -0.0060401717 0.004307592 0.008056072 0.0067745154 0.0060066963
-0.003994685 -0.0035116882 0.006138696 0.004581814 0.00983206 0.0014169264 0.006967131 -0.0016692531

tfm.layers.0.attention_residual.linear_layer.layer.weight f4 [72, 72]
00000000: 944d e3bc 9a86 323d 2072 8c3d 99a8 1abd
00000010: 0755 bd3d 10c1 bf3d b54d 643d 9f53 1fbd
00000020: 4d15 953d e1d0 a13d 5233 b1bd cb74 8cbd
00000030: ec09 b63d fb90 1dbd d868 babd 72ae 7cbd
00000040: c998 c4bb 58d6 44bd a084 2abd 0f58 b7bd
00000050: 81c8 febc b50d 153d 1817 e03d e058 6dbd
00000060: 9a39 8bbd f188 133d 2ad6 eb3d 3e72 203d
00000070: 4c70 b5bd aa5c c03d 4523 6d3d 0037 c73c
00000080: 9ff5 7fbd 322d 08bd 2652 98bd 729f 00bd
00000090: 6027 663d 3ea9 1f3d 2c22 18bd 67c4 8b3c
000000a0: 2f0c 81bc a393 813d 952e c03d a56f d03d
000000b0: 1174 b4bd 2c94 8c3d 8b32 193d a5b7 a3bc
000000c0: b48a 8f3d aa36 6e3c 0ff7 9c3d f068 fd3c
000000d0: c5bc d13d 2190 b03d 0f10 193d 3416 c13d
000000e0: c7f0 ffbc c302 52bd 88f8 e3bd a890 16bd
000000f0: 5d8f 92bd 953b 18bd 1fc5 b5bd 9a97 67bd
00000100: 07e4 5cbd 678f e03d 8eda 863d b997 aabd
00000110: 0862 79bd dffc 0f3d aa65 51bd 17ae a53d
00000120: 81a1 b23c e993 c6bd db2e 3dbd c9c3 be3d
00000130: 052a 65bd 4b7d b1bc be33 9cbd b02e 98bd
00000140: 5d0b cb3d 6c71 973d 7208 93bc 712c e1bd
00000150: dd38 0b3d f087 b6bd 88cf 1f3d 77b0 35bd
00000160: 08e3 c6bc 6ca3 a43d 8178 d7bd f0cd 6abd
00000170: 0dc9 733c 7101 8b3d ac3f 4abb 3271 61bc
00000180: 62b2 9cbd f05f 633d 4a11 bfbd 8dc8 d13d
00000190: 7730 8d3d 326d bbbd 8d5d e83d 340b c2bd
000001a0: 7624 6bbd e2e7 843d aef3 d2bd 01ab b33d
000001b0: 1031 493d 0de3 cdbd 89a9 b83d 95f2 89bc
000001c0: d5ee b73d 08dc 3cbd 9b49 82bd 1832 eabd
000001d0: de7a 9e3d f830 9fbd aafc bdbd 2f4a 743c
000001e0: 012a d63d 3d88 bd3d 44b7 33bb 38db d83d
000001f0: 7906 69bc cbb6 943d 807b 6fbd 43fd bebb
00000200: 37e6 a9bd bd40 1ebd fc74 b43d fc32 90bd
00000210: a239 26bd 4c6c 6fbc 446c 46bd da8a dc3d
00000220: 86b1 bd3d d5ea f0bd 382e e43d b868 d2bd
00000230: 99f5 b3bd 5ef9 37bd 4269 a03b fd57 eb3d
00000240: d430 d53d ecff ab3d a478 6dbd c2c1 f3bc
00000250: 19f6 763d f20a d53d 4a35 d9bd 7aea 8f3d
00000260: de41 be3d 0519 cbbd 0800 94bc acbe e03d
00000270: 3793 79bd ba09 853d 4fd0 80bd bece edbd
00000280: 46b9 d53d afe8 bdbd e6bb f03d 3d83 babc
00000290: 6e1b 87bc f7ab b23d d6dc e63d f161 833d
000002a0: babf f03c 215f 903d 25df 9e3c c533 203d
000002b0: 8b2e ca3d f2af e03d 692f eb3c dcc7 cf3d
000002c0: 84bb 43bd bc4b 9e3d 49b8 d6bd ba05 083d
000002d0: 7401 eebd 4fb1 d93c 8999 22bd fc77 aabc
000002e0: abf6 64bc 931f cdbd fd25 99ba 011b 783d
000002f0: 07dd d03d 3efe 8fbd ce58 56bd 82e9 09bd
00000300: 1965 b4bc a06d bc3b b96f d9bd cb15 d0bc
00000310: 0c1f e13d 9f2f 7c3d 1b26 253d da4e 5b3d
00000320: 9275 18bc 4c8e cfbd b0f4 b0bd 7ac1 58bd
00000330: 0982 5bbd 8916 3bbd f5e9 cabd 8d5d e73c
00000340: 6258 943d 4e8f 6fbc ba85 9c3d a68d 09bd
00000350: 3fb0 d4bc adae b13c 293d 6fbd 9b79 c03d
00000360: f17e 863d 12a7 62bd cb7b 69bc 89ea 25bd
00000370: 7c74 25bd b17c 41bc ec97 c8bd 3b4e be3d
00000380: 8bed 11bd f515 b93d 122d a83d 1e8e 103d
00000390: b7d6 533d 5d26 9d3d 08c7 893d cec6 683d
000003a0: 5506 ac3d f29d 8abc 4b28 aa3c edbd bf3d
000003b0: cede b83d 921f d6bd 2794 ca3d f945 ac3c
000003c0: 0e3f 743d d4b9 60bd b4eb ff3c 5136 d43d
000003d0: 89aa 16bd 3860 f63b 4e05 a6bd 7ea1 e5bd
000003e0: 9b85 35bd fa45 bdbd 2bfa 12bd 7e6c ccbc
000003f0: 273e 863c 5b3b dcbd bed5 203c cf6e 6cbd
-0.027746953 0.043585397 0.06857705 -0.037758444 0.09244733 0.093629956 0.05573817 -0.038898107
0.072794534 0.079011686 -0.08652367 -0.06858214 0.08888611 -0.038468342 -0.091020286 -0.0616898
-0.0059996587 -0.048055977 -0.041630387 -0.08952343 -0.031101467 0.036390025 0.10941905 -0.057946086
-0.06798096 0.03601927 0.11515458 0.03917145 -0.088593096 0.09392674 0.057894964 0.024318218
-0.062490102 -0.033246227 -0.074375436 -0.03140206 0.056189895 0.03897976 -0.037141964 0.017061425
-0.01575288 0.063269876 0.09383885 0.101775445 -0.088112004 0.06864199 0.037401717 -0.01998503
0.070088774 0.0145394 0.0766431 0.030933827 0.10241083 0.086212404 0.03736883 0.09428063
-0.031242741 -0.051272165 -0.11131388 -0.03675905 -0.071562506 -0.037166197 -0.088754885 -0.056541063
-0.0539284 0.10964852 0.06584655 -0.0832972 -0.060884506 0.035153266 -0.051122345 0.08089846
0.021805527 -0.096961804 -0.046187263 0.09314687 -0.055948276 -0.02166619 -0.076270565 -0.0743078
0.09914277 0.073946804 -0.017948363 -0.10994805 0.033989776 -0.08912647 0.039016277 -0.044357743
-0.024278179 0.08038983 -0.10521031 -0.057325304 0.014879477 0.06787384 -0.0030860705 -0.013759898
-0.07651211 0.055511415 -0.093294695 0.1024333 0.068940096 -0.09151687 0.113459684 -0.09474793
-0.05740782 0.06489541 -0.103003845 0.08772851 0.049119055 -0.10053072 0.09016711 -0.016839305
0.089811005 -0.046108276 -0.063616954 -0.11435336 0.07738279 -0.07773012 -0.092767075 0.014910265
0.1045723 0.09254501 -0.0027422467 0.10588688 -0.014222735 0.072614275 -0.05846739 -0.005828531
-0.08295863 -0.038635958 0.088113755 -0.070409745 -0.040582307 -0.014613222 -0.048443094 0.10768671
0.092623755 -0.11763541 0.11141628 -0.1027388 -0.087870784 -0.04491555 0.00489536 0.11491392
0.10409704 0.083984226 -0.05797638 -0.029755477 0.06029329 0.10402478 -0.10605867 0.07027145
0.09289907 -0.099168815 -0.018066421 0.10973868 -0.06093141 0.06495996 -0.06289732 -0.116116986
0.10435729 -0.092728965 0.11754589 -0.022767657 -0.016492572 0.08724206 0.1127259 0.06415165
0.029388297 0.070493944 0.019393513 0.03911187 0.098721586 0.10971059 0.02870913 0.10145542
-0.04778625 0.07729289 -0.10484368 0.033208586 -0.11621371 0.026573805 -0.039697204 -0.020809166
-0.013974826 -0.10015788 -0.0011684295 0.060572628 0.101984076 -0.07030915 -0.052330784 -0.033669956
-0.022020863 0.005750373 -0.106170125 -0.025401017 0.1099225 0.061568853 0.040319543 0.053541996
-0.009305375 -0.10134563 -0.086404204 -0.05291889 -0.053590808 -0.045675788 -0.09907905 0.02824285
0.0724342 -0.014621569 0.07642694 -0.033582352 -0.025962947 0.021689737 -0.058407936 0.093981944
0.06567181 -0.055335112 -0.014250706 -0.040506873 -0.04039429 -0.011809514 -0.09794602 0.09292265
-0.03562693 0.09037391 0.082117215 0.035291784 0.05171844 0.07673333 0.06727415 0.05683022
0.08399645 -0.016921017 0.020771166 0.09362397 0.090268716 -0.1045524 0.09891539 0.02102946
0.059630446 -0.05486472 0.031240322 0.103619225 -0.03678373 0.0075187944 -0.081064805 -0.11212443
-0.04431687 -0.092418626 -0.03588311 -0.024954077 0.016387058 -0.10753509 0.009816585 -0.057722863

tfm.layers.0.attention_residual.linear_layer.layer.bias f4 [72]
00000000: 6284 8cbb d4ac 0d3b e61f c0bb 658d 10ba
00000010: b9c5 b5bb e783 adbb 5894 f83b 1447 12bb
00000020: eac5 78bb 6298 aebb 4032 a43b ba59 63bb
00000030: 53f6 c7ba c029 90ba 98b2 52bb 3e76 293b
00000040: 1c8c 00bb abda 973b 82d2 0a3c 2813 e9ba
00000050: 23c6 cebb 98ad c63b 52ae a0bb cd2b 12bb
00000060: 4027 883b c736 013c e049 d1bb d3ab 243b
00000070: 73c1 82bb 4ef1 943b 675a 443b 242a 19ba
00000080: 7bb8 b4ba 08b1 a0bb 7213 9a3a 4f92 8939
00000090: 75c1 ab3a 7e42 333c a69f 4b3b 8741 c0bb
000000a0: 3a13 503a 1f99 9c3b d446 16bc 2a2e 95bb
000000b0: 7548 823b 50cc 1839 602f e3bb a8d6 c0b9
000000c0: e6e5 983b 5227 cc39 ff8b 3e3b 0fb3 edb9
000000d0: ac86 19b9 6085 b23b 3bc2 9c3b af4b b9bb
000000e0: 9686 cb3b 4b29 ca3a 1801 0d3c 4e85 01ba
000000f0: 85db 7fba d0a9 e33b a8ab 803b e54d 43bb
00000100: 30e1 a3bb 5beb edbb 75b5 413b 1797 91bb
00000110: 60b6 0fbc 98e9 123b ccc1 053a 0200 b93b
-0.004288242 0.0021617906 -0.0058631776 -0.00055142335 -0.005547252 -0.005295265 0.0075860433 -0.0022320198
-0.0037959763 -0.005328224 0.005010873 -0.0034690932 -0.0015255905 -0.0010998771 -0.0032149907 0.0025857831
-0.0019614762 0.0046342216 0.008473041 -0.0017782198 -0.006310241 0.0060631745 -0.004903593 -0.002230394
0.0041550696 0.007886595 -0.0063869804 0.002512683 -0.003990346 0.0045453673 0.002996111 -0.0005842766
-0.001378789 -0.0049039163 0.0011755063 0.00026239685 0.0013103919 0.010941146 0.00310705 -0.0058671865
0.00079374353 0.0047789956 -0.00917216 -0.0045526223 0.0039759227 0.00014571962 -0.006933138 -0.00036781025
0.004666078 0.00038939208 0.0029075143 -0.00045337572 -0.00014641386 0.0054480284 0.0047838963 -0.005654774
0.0062111123 0.0015423683 0.008606218 -0.00049408234 -0.0009760189 0.0069477335 0.003926713 -0.0029801067
-0.0050012097 -0.0072607226 0.002955762 -0.00444306 -0.008771509 0.0022417065 0.00051024253 0.005645753

tfm.layers.0.attention_layer_norm.gamma f4 [72]
00000000: a27e 7e3f f768 7e3f 966f 803f 60f7 7d3f
00000010: 6822 803f b2c4 7f3f eaf4 803f b800 813f
00000020: 47dd 803f 83cc 7e3f 02a4 7e3f eaaf 803f
00000030: 0184 7e3f 2708 7e3f 4ad1 7e3f 2527 7f3f
00000040: e379 7f3f f84f 7e3f 3113 7f3f c207 7e3f
00000050: 25e0 803f be1e 803f f2c8 803f 1e15 7f3f
00000060: 7667 803f 4cb7 803f 4772 803f 9928 7e3f
00000070: 0ee9 7e3f c923 7f3f ac93 7f3f 845e 803f
00000080: 3e68 803f d5c7 7f3f 571a 7f3f 11f8 7d3f
00000090: 7e95 803f a2a3 803f d5de 803f abf4 7e3f
000000a0: 53d2 803f 65b9 803f ec0a 813f e4b9 7e3f
000000b0: 853e 7f3f 334e 7f3f d2ba 803f 157c 803f
000000c0: f8d5 7e3f bab4 803f c801 7e3f 4c67 803f
000000d0: 54e3 7e3f d35c 7f3f 1efe 7e3f b0ea 803f
000000e0: 5eb8 7f3f 8080 803f 1fe2 7f3f e0ce 7f3f
000000f0: b680 803f bf01 7e3f 8a97 7e3f a54f 803f
00000100: 31d0 803f 6685 7e3f 8fa1 7d3f 3e4c 7f3f
00000110: f5de 7e3f 8f70 803f d584 803f 6d0b 813f
0.99411976 0.99378914 1.0034053 0.9920559 1.00105 0.9990951 1.0074742 1.0078344
1.0067528 0.9953081 0.99469006 1.0053685 0.9942017 0.9923119 0.995381 0.99669105
0.9979536 0.9934077 0.9963866 0.9923059 1.0068403 1.0009382 1.0061324 0.996416
1.0031574 1.0055938 1.0034875 0.992807 0.99574363 0.9966398 0.99834704 1.0028844
1.0031812 0.99914294 0.99649566 0.99206644 1.0045621 1.0049937 1.0068003 0.99592084
1.0064186 1.0056578 1.0081458 0.99502397 0.9970477 0.997287 1.0057013 1.0037867
0.9954524 1.0055153 0.9922147 1.0031524 0.99565625 0.99751014 0.996065 1.0071621
0.99890697 1.0039215 0.9995441 0.9992504 1.003928 0.99221414 0.9944998 1.0024306
1.0063535 0.994223 0.99074644 0.9972571 0.99558955 1.003435 1.0040537 1.0081612
